models/system_model_1_-0.74_-0.44.onnx (onnx, 831509 bytes, 20 tensors)

gan_net.main.0.weight_step_0 f4 [258, 4]
00000000: 056f 043c 080e 9f3b c8e3 043b 437d b2bb
00000010: ee92 dfbb 7e3f 9d3b 8aa7 9b3a a6ce 2e3b
00000020: e494 d5bf 0bfe 083f 45df 8d3d c997 183e
00000030: 14a8 703b 7cb3 9bbb 2f87 013a 07b6 13bb
00000040: b645 963c 5e5c c7bc 7e62 e9bb 940b 0fbb
00000050: fb94 2e3c 2120 653c 0d8f e13e 19e4 c0be
00000060: f18e e7b8 7278 f838 efeb 1c38 86bd 3837
00000070: 1d67 a33d 3af1 52bd 0a39 29bc eddd f5bc
00000080: a6d3 31bd 7102 ef3c 24c6 2f3c f945 bc3c
00000090: 0607 1d3b 9adc bdba ced2 fa38 8ee4 80ba
000000a0: 96bf 33b8 fd70 36b6 575d d736 92f6 24b5
000000b0: e195 aebf f579 e73e 6369 70bd d627 43be
000000c0: 985e f437 059d 94b7 a698 42b7 379d ebb5
000000d0: 7004 ce3b e55d e7bb 07e9 94bf 76a3 bcbe
000000e0: 5e34 bc3c fc2a 99bc fe16 c2ba 2345 463d
000000f0: 4aa9 47b6 6c3c 1236 9b2a aa34 7ad0 5c35
00000100: 1521 c4bb 5c82 953a c5cd 4d3a 2411 abb9
00000110: 2a35 a93e 5b3b 39bd c6a8 05be fa55 993d
00000120: 5eff 103d 7c78 4cbd 37fa 39bc cda0 33bc
00000130: 7a78 3bbc 7ec0 973a 3eb8 b23b 26c0 c1bb
00000140: 0af1 bdb9 0bcd 913a b81a ae38 7298 ee39
00000150: 7c4a 473c a254 b4bc 8005 a9bf f373 8dbe
00000160: 7a2f 923d ec48 a9bd 0f08 d93b 9c87 e5bc
00000170: 489c 8a3d b289 56bd 46dc 0eba 8fd7 e9bc
00000180: 1200 833e c656 86bd f32d 1ac0 877b 0540
00000190: 6116 f1bc 2936 b0bc 4a2e e13b 2cd5 4bbc
000001a0: 3079 3a3c eb0d cc3c 712a 563f 7e75 3b3f
000001b0: f2e3 2b40 ba77 2940 3094 a3bb dc07 97bd
000001c0: 5b7c 84be 26ce 373d 8ee8 28c0 c964 3440
000001d0: f73c 61ba 4daf b1bb 73cd 93bf 201c 57bf
000001e0: 09a1 35b9 7ef3 0839 be8e c437 970e 4438
000001f0: b36d 8a3d af36 26bd eff0 97bc 365d 25bd
00000200: 10d5 b0bf 4350 903f 1ed7 ebbd d77c 24bd
00000210: 1797 42b7 3fa6 a338 fb3e e838 8b25 ceb8
00000220: d665 e13d 7838 c5bd 7bd9 9abc b9a6 cdbc
00000230: bbd4 93bd 2578 bf3d d212 093c 46af ae3c
00000240: 8b06 ce39 c0f7 78b9 3c3b 89b9 84b7 7238
00000250: 8d05 52b9 72a1 4e39 94b0 5fb6 878c 1239
00000260: fae8 c03b 5b0a 1f3c 0720 503f c96b 643f
00000270: 095e 8c3d 067b 4ebd ed04 a6bc 4a55 2bbd
00000280: 89d6 523f 64e9 d1bd c065 843e e95d 3e3e
00000290: 2be3 5fbd e0ba 693d 413d ecb9 262b 713c
000002a0: 75ee 4839 034d 65ba dae3 64b9 97e9 80b8
000002b0: 332c 7a3d 9c57 36bd 096e c5bc 4e2e 1fbd
000002c0: c6a0 453b a751 4cbb 37ca a4bf 630d e7be
000002d0: 496b 61b9 4a42 8e39 0ce1 ab38 ef51 5b39
000002e0: 166a 2c3c 2163 e8bb db7c 81ba 63ad 8bbb
000002f0: 399d 9b30 eb42 a5af 7271 56af ac1f f1ae
00000300: 54a2 98bf 5d20 923f f37b 683c a242 c8bc
00000310: 5d0f d928 bae6 32a8 5b51 3b27 1a7b 08a8
00000320: 14c0 86b7 d827 7437 aaad 2c37 8dfb 4e35
00000330: 63d0 e3bd 7fe7 103e 87de 7f3c b172 b83c
00000340: 7796 eb3e 5d4c 50bd c08a a43e 01b0 8ebe
00000350: ab18 1c3d aa33 253d 00ca 5cba 21ef 273c
00000360: d253 af3d 7e8a a3bd 87cc a3bc 49ed c8bc
00000370: 7527 5139 14b7 edb7 8a72 9f39 645c b6b9
00000380: 8748 e43d 8999 fcbc 4192 bf3d ac33 ffbd
00000390: bb90 e63d ae6f abbd afc3 84bc f612 69bd
000003a0: afbd f03b 9935 ffbb 9c87 eaba 3277 39bb
000003b0: f949 6abd b372 be3d 419a 593c a4cb a93c
000003c0: 5e9e c33f 21b8 5dbe aeef 6d3d fe4e f93c
000003d0: 18e6 35bc b75e a2bb b5d7 98be c630 87bf
000003e0: 3703 9ebf 7689 bf3f 25cb c93b 1582 00bd
000003f0: aad8 e93b fef9 db3b 3c5f a63e b719 5a3f
0.00808311 0.0048539676 0.002027737 -0.0054470613 -0.0068229353 0.0047988286 0.0011875492 0.0026673465
-1.6686063 0.5351264 0.06927351 0.14901651 0.0036721276 -0.004751621 0.00049411034 -0.0022538917
0.018343788 -0.024336036 -0.007122337 -0.002182697 0.010655637 0.013984711 0.44054452 -0.37674025
-0.00011041563 0.00011847996 3.741303e-05 1.10113815e-05 0.07978652 -0.051499583 -0.010328541 -0.030013049
-0.043414734 0.029175969 0.010728393 0.022982584 0.0023960485 -0.00144853 0.000119601944 -0.000983374
-4.2855354e-05 -2.7185881e-06 6.4183655e-06 -6.145357e-07 -1.363949 0.45210233 -0.058694255 -0.19058165
2.9131115e-05 -1.7716093e-05 -1.1598842e-05 -1.755462e-06 0.00628715 -0.0070607536 -1.1633614 -0.3684346
0.02297419 -0.018697254 -0.0014807878 0.048405778 -2.975185e-06 2.1790866e-06 3.1695967e-07 8.225976e-07
-0.005985389 0.0011406648 0.00078507914 -0.00032628432 0.33048373 -0.04522262 -0.13052663 0.07487102
0.035399787 -0.04991959 -0.01135116 -0.010963631 -0.011442298 0.0011577753 0.0054540923 -0.0059127985
-0.00036228477 0.001112373 8.301943e-05 0.00045508478 0.012163755 -0.022013012 -1.3204803 -0.27627525
0.07137962 -0.08265862 0.006623275 -0.028018765 0.067680895 -0.05237741 -0.00054496934 -0.02854517
0.2558599 -0.065595195 -2.4090545 2.0856645 -0.029429616 -0.0215102 0.006871973 -0.012440961
0.011381432 0.02490898 0.8365851 0.73226154 2.6857877 2.6479325 -0.0049920306 -0.07374546
-0.25876126 0.044874333 -2.639194 2.8186514 -0.00085921533 -0.005422509 -1.1547073 -0.8402729
-0.00017321495 0.00013060679 2.343149e-05 4.674363e-05 0.06759205 -0.040579494 -0.018547503 -0.040372096
-1.3815022 1.1274494 -0.1151564 -0.04015812 -1.1598479e-05 7.8034114e-05 0.00011074353 -9.8298384e-05
0.11005752 -0.09629911 -0.01890253 -0.025103914 -0.072183095 0.093490876 0.0083663035 0.021323811
0.00039296257 -0.00023743417 -0.0002617481 5.786821e-05 -0.00020029228 0.00019705834 -3.3332371e-06 0.00013975996
0.005887148 0.009707059 0.8129887 0.8922697 0.06853873 -0.050410293 -0.02026602 -0.041829385
0.82358605 -0.10249594 0.2585888 0.18590511 -0.054660004 0.057062984 -0.00045059065 0.01471976
0.00019162318 -0.00087471324 -0.00021828656 -6.147025e-05 0.061077308 -0.044517145 -0.02410032 -0.03886252
0.0030155643 -0.0031176598 -1.2874211 -0.451274 -0.00021497639 0.0002713374 8.195834e-05 0.0002091599
0.01052334 -0.007091895 -0.0009879129 -0.0042626127 1.132242e-09 -3.0060873e-10 -1.950349e-10 -1.0965037e-10
-1.1924539 1.1416126 0.014189708 -0.024445836 2.4098502e-14 -9.931016e-15 2.5995566e-15 -7.57621e-15
-1.6063488e-05 1.455281e-05 1.0292433e-05 7.7107035e-07 -0.11123731 0.14150809 0.0156170195 0.022515627
0.46013233 -0.050854076 0.32137108 -0.27868655 0.038109463 0.040332474 -0.00084224343 0.010249884
0.08560909 -0.079854 -0.019994987 -0.024527209 0.00019946492 -2.8337854e-05 0.00030412182 -0.00034782581
0.11146646 -0.03083493 0.093540676 -0.124610275 0.11258074 -0.083709106 -0.01620659 -0.05690285
0.007346831 -0.0077883718 -0.0017893198 -0.0028299806 -0.057199452 0.09299221 0.013281406 0.020726986
1.5282705 -0.21652271 0.058089904 0.030433174 -0.011102222 -0.0049551385 -0.2985207 -1.056176
-1.2344731 1.4963825 0.00615825 -0.031374056 0.007136424 0.006713151 0.32494533 0.8519549

gan_net.main.0.bias_step_0 f4 [258]
00000000: 067d 7ebf 64b9 4fbf 1a2d c4bf b9bd 37bf
00000010: e66a 67bf bff9 59bf a4bf 6bbf 2fc2 53bf
00000020: 9b93 13bf 2f84 75bf 672b 41bf f463 9bbf
00000030: ebe3 87bf 2b63 143e 469a 7ebf cb4a 86bf
00000040: e1b6 66bf 3e7b a3bd 694a 47bf 92d8 1fbf
00000050: 49b5 57bf f812 05c0 c710 33bf aab1 56bf
00000060: 02ad e9c0 c97e 6bbf f625 07c0 0fbc abc0
00000070: b820 10c1 2dc0 7cbe 7608 48bf d6d6 37bf
00000080: bd70 02c0 7181 f4be fb7d 7bbf a6e4 59bf
00000090: 1075 87bf 2591 65bf 8cf4 fcbf 0df2 3abf
000000a0: 30bb 2bbf 8652 4ebf a06f 29bf f18d 36bf
000000b0: 62da f1bf 418a f0be d3f3 91bf da70 80bf
000000c0: 5eed ffbf 115e 35bf fe23 7bbf c21b 95bf
000000d0: 1293 61bf f450 5bbf cf36 4cbf 5d5d a2bf
000000e0: 106d 52bf 10cb 58bf e377 74bf 7383 87bf
000000f0: 3674 8fbf 2702 a1bf 9c5f fcbf f693 46bf
00000100: 4138 4cbf 0dd9 32bf a37f 71bf bcc0 05c0
00000110: 09a9 a5bf ee34 67bf 206a d2bf b668 acbf
00000120: ed9e 7fbf aa02 7dbf ed1a 62bf 4e13 34bf
00000130: 3d32 5ebf 663e a6be bb34 4ebf 25fa 36bf
00000140: a796 30bf e3d3 85bf 70e5 e1bf 416b 37bf
00000150: b383 0bbf b1f2 54bf 4972 7fbf 4504 3abf
00000160: c5b1 8cbf 5252 3bbf aa0b 4ebf 136a 38be
00000170: 502f 4fbf 74e3 5ebf 59fb 68bf 373a 42bf
00000180: 40aa 89bf 3ee2 3fbf 03ca 80bf 9d67 f0bf
00000190: 8eaf 36bf 91a3 2bbf ad86 3cbf 8764 33bf
000001a0: f190 76bf a5af b7bf fe7f 4abf 28cc 60bf
000001b0: e8dd 69bf b96e 81bf 2dd4 3abf 332a 90bf
000001c0: 9857 6fbf ef57 d0bd 9edd 0dbf 2fb3 fcbf
000001d0: 40c0 86c0 feda 62bf 9c3a 6bbf 27d8 61bf
000001e0: 7e01 ecbf 3637 b3bf 33d8 0dc0 19c5 83bf
000001f0: a092 1abf 40ab 71bf 6443 39bf ec69 60bf
00000200: f8be 31bf fc52 00bf d3db 8cbf a163 35bf
00000210: cf5b 2a3c d991 98bf cb87 66bf b891 25bf
00000220: e29d 98c0 f054 4abf 7660 31bf a5f1 cfbf
00000230: 7e85 65bf dc08 50bf 02ae 60bf 5638 83bf
00000240: 2f73 38bf 63b0 5fbf 5592 99bf 070e 50bf
00000250: a0bb 33bf 08c5 89bf 8ede dcbe 8711 28bf
00000260: 6706 5ebe 0918 42bf b0f1 2fbf a2f2 43bf
00000270: 288f 40bf 3048 27bf aab3 57bf bd47 32bf
00000280: d687 69bf 8df2 b4bf 58ed 5ebf 6520 8fbf
00000290: 8dc4 4fbf f026 87bf 99ce 60bf 9272 36bf
000002a0: 0561 64bf 0c34 79bf 94fe f1be 14a9 35bf
000002b0: d626 9fbf 74e6 81bf 016a 43bf 0d54 bfbf
000002c0: e302 6bbf c10f a4bf f830 8cbf d5ac 40bf
000002d0: 0fa7 51bf d570 5abf 33bd 78bf 4568 44bf
000002e0: d5a6 62bf 2acc a0bf 52ba 1ebf 59c6 54bf
000002f0: d6a1 6dbf 5a07 95bf acac 7fbf c592 54bf
00000300: 260b 46bf 479e 1dc0 2b38 8fbf 5d3c 90bf
00000310: f446 84bf 52d0 81bf dc20 36bf c3f7 5cbf
00000320: 8dec 38bf 76e8 49bf 66b1 55bf 9b92 a5bf
00000330: 5347 54bf 4026 24be d4de 49bf d392 6abf
00000340: fd28 9cbf f0c1 9fbf 571e 9ebf c6b2 66bf
00000350: ccb7 6abf b0d6 5fbf a694 39bf 043a 33bf
00000360: 449b 80bf f211 68bf 4344 66bf af30 0cc0
00000370: 12cc 69bf 80d8 34bf 7d04 babf 000d 83bf
00000380: f878 80bf ab1e d6bf f38c 29bf 6966 cabf
00000390: 9ae5 c33d 14f1 73bf 7854 69bf 68b7 53bf
000003a0: 81db 1bbf 0caa 89bf ee19 6abf 9e52 40bf
000003b0: b96e 49bf e718 77bf 05b9 9bbf b8c9 31bf
000003c0: b467 63bf 4856 89bf 98b4 45bf 76a2 5ebf
000003d0: fef5 33bf dd57 14bf 85e6 7bbf 5e97 5dbf
000003e0: aed0 50bf 34ed 3bbf a6c8 51bf 8034 96bf
000003f0: 0ea6 55bf d1f8 46bf b5c4 6dbf 3a2d 6dbf
-0.9940952 -0.8114226 -1.5326264 -0.7177387 -0.9039749 -0.8514671 -0.92089295 -0.82718176
-0.57647103 -0.9590482 -0.7545685 -1.2139878 -1.061643 0.14490955 -0.9945415 -1.0491575
-0.901228 -0.07982491 -0.77847916 -0.62439835 -0.84260994 -2.0792828 -0.69947475 -0.83864844
-7.302369 -0.91990334 -2.111692 -5.3667064 -9.007988 -0.24682684 -0.7813791 -0.7181219
-2.038131 -0.47755006 -0.98239106 -0.85114515 -1.05826 -0.896746 -1.976213 -0.7302559
-0.670825 -0.8059467 -0.6618595 -0.71310335 -1.889477 -0.4698048 -1.1402534 -1.003444
-1.9994314 -0.7084666 -0.98101795 -1.1649096 -0.88115036 -0.856704 -0.7977113 -1.2684742
-0.82197666 -0.8468485 -0.9549543 -1.058699 -1.120734 -1.2578782 -1.9716678 -0.7756952
-0.79773337 -0.69862443 -0.94335383 -2.0898886 -1.294221 -0.9031514 -1.6438637 -1.3469455
-0.99851876 -0.9883219 -0.88322335 -0.70341957 -0.8679541 -0.3246948 -0.8054921 -0.7147544
-0.6897988 -1.0455288 -1.7648144 -0.7164803 -0.5449783 -0.8318282 -0.9978376 -0.72662765
-1.0991751 -0.73172486 -0.8048655 -0.18009214 -0.8093157 -0.87065816 -0.91008526 -0.7587008
-1.0755081 -0.74954593 -1.0061649 -1.878162 -0.71361625 -0.6704646 -0.73643 -0.7007527
-0.96314913 -1.4350477 -0.7910155 -0.8781152 -0.9135423 -1.0111915 -0.72980005 -1.1262878
-0.9349303 -0.10173022 -0.55416286 -1.9742182 -4.210968 -0.88615406 -0.91886306 -0.8822045
-1.8437955 -1.4001224 -2.2163208 -1.0294524 -0.6037998 -0.9440193 -0.72368455 -0.87661624
-0.6943202 -0.50126624 -1.1004585 -0.70855147 0.010397865 -1.1919509 -0.90050954 -0.64675474
-4.769273 -0.79035854 -0.6928781 -1.6245619 -0.8965682 -0.8126352 -0.87765515 -1.0251567
-0.72050756 -0.8737852 -1.1997782 -0.81271404 -0.7020817 -1.0763254 -0.43138546 -0.65651745
-0.2168213 -0.75817925 -0.6872816 -0.76542103 -0.7521844 -0.65344524 -0.8425852 -0.69640714
-0.91222894 -1.4136521 -0.8708091 -1.1181761 -0.8115929 -1.0558758 -0.87815243 -0.7126857
-0.8921054 -0.9734504 -0.4726454 -0.7096112 -1.2433727 -1.0148454 -0.76333624 -1.4947525
-0.9180128 -1.2817308 -1.0952444 -0.7526372 -0.81895536 -0.8532842 -0.97163695 -0.767216
-0.88535815 -1.2562306 -0.6200305 -0.83115155 -0.9282507 -1.1642869 -0.9987285 -0.8303645
-0.7736076 -2.4627855 -1.1189016 -1.1268421 -1.0334153 -1.0141699 -0.7114389 -0.86315554
-0.7223595 -0.7887033 -0.83473814 -1.2935365 -0.8292133 -0.16030216 -0.78855634 -0.91630286
-1.2200009 -1.248106 -1.2353009 -0.90116537 -0.916867 -0.8743696 -0.72492445 -0.700104
-1.0047383 -0.9065238 -0.8994791 -2.1904714 -0.9132701 -0.7064285 -1.453262 -1.0238342
-1.0036917 -1.6728109 -0.66230696 -1.5812503 0.095652774 -0.9528973 -0.91144514 -0.8270173
-0.6088181 -1.0755019 -0.91445816 -0.75126064 -0.78684574 -0.9652237 -1.2165838 -0.69448423
-0.88830113 -1.0729456 -0.7722869 -0.86966646 -0.7029723 -0.5794657 -0.9839862 -0.86559093
-0.8156842 -0.7340882 -0.8194679 -1.1734772 -0.83456504 -0.77723414 -0.92878276 -0.92647135

gan_net.main.2.weight_step_0 f4 [258, 258]
00000000: a022 173c 6806 013d dd63 713c 824e 8f3c
00000010: 8c25 68bc 0c30 0d3c 0bfd 00bc ec06 9aba
00000020: 171a 9cbb f7c8 bcbb 692a 8abb 64ed 8d3c
00000030: 23fe 8cbc 5be7 6ebc 9fcb 563c a227 c3bc
00000040: 9456 003d 2bc9 eb3b 074a a23c 1ab1 333d
00000050: 181f bcbc e7b8 113b c3d0 24bb 7449 073b
00000060: bfc7 38bc cbfe 85bc 84d2 d03c cea2 ccbb
00000070: 8b6b 993c 081e 02bd f5a4 c93c 90e7 b23a
00000080: 50fd e43b 160c 9bbb 88e5 98bd 8770 14bc
00000090: fe9b 683b 7a6e df3c c0cc 9f3b 3daa d23c
000000a0: 9611 69bc b851 343d f913 16bc 37c9 27bd
000000b0: d4ec 03bb bf9b f83a 6b1d 4e3c 4b80 ea3c
000000c0: cce9 8b3c bb14 0ebc 6cf6 3d3c 3066 ffbb
000000d0: 2e9c 6c3a 54d5 ddbb 9fa8 23bd 6846 e0bb
000000e0: 4554 a9bb 1300 1b3c 111b 4fbc 1b32 a13c
000000f0: 0691 67bb 06c3 16ba e601 b2bb 313f 63bc
00000100: bfe0 a7bb b9f1 7cbb efa0 a3bc b3e2 aebb
00000110: 9ff2 ac3c d48d 27bc e895 c33b a366 883c
00000120: 3e5a d43b 6229 d1bc 0179 54bc 56e2 de3c
00000130: 74cc 563c 9e42 f0bb 0b5b 0a3b 3c74 f1bc
00000140: e7dc bc3c df97 86bc 3eeb b6bb 2a1a a33c
00000150: d0f4 38bd c316 94bb 867e 723a 1d6a 28bb
00000160: c48f 16bb eb18 a53b 6be9 58bb b01a 883c
00000170: ba03 d6bb eca2 9e3c a8cf 243b 6122 0e3c
00000180: 52c5 5bbc 7900 e8bc 3523 f1bb 7a30 debb
00000190: a8cd 9dbc 4763 7abc 149f a5b9 af49 82bc
000001a0: 9ff8 e8bb ece1 7d3c 422e bc3c 16dc 593b
000001b0: 07ee a6bc 2e85 93bc fe14 dcba c7be 04bd
000001c0: d7be 14bb 9998 1fbc cf8e fc3a 51d5 a8bc
000001d0: 04ae be3c c4f0 1dbc 77d0 1a3a 00e4 58b7
000001e0: 6ded 423c 4a0f 3abc 9cc0 703c 7480 11b9
000001f0: 73b0 e03c 23e4 f83c f59c 6abd c36e 6abc
00000200: c0af f3ba 74f6 393b 2e70 193c 76c8 643c
00000210: 94cc af3b 68f9 5b39 31cf c83b e686 813c
00000220: d2c3 49bc 5c81 c8bb 472b 123d 7dee 9039
00000230: 3560 b3bc 25fb 56bb 01bc 95bb 7ce8 823c
00000240: 16db bab9 de8e 243d 0dd4 bebb 97a9 0b3c
00000250: 6803 69bc 1f07 20bc ea42 b43c 6b2d d6bb
00000260: e5ae bbbb 7916 2e3b 2331 a23c 0eff 60bc
00000270: 426f c339 0e8e 8ebb 9c27 90bc f9ef 4e3c
00000280: cae7 59bc 1246 103c 24e5 d53a 79e4 9abb
00000290: 9b66 8c3b e8bd 91bc d47f 0cbd 1f27 fabc
000002a0: 308b 45ba 1f37 63bc 800c 34bc 88d5 8cbc
000002b0: e0c4 c8bc 83c5 283c c5ab 0d3b 0f2c 00bc
000002c0: 9e98 4dbc 8d0a 2bbb 95d9 fa3b 040a 343b
000002d0: d62b f4b9 c2d8 62bc 1b34 ea3c 31ad 7b3a
000002e0: fb8d 9a3c b2c8 37bc b73f 05ba 989f 22bc
000002f0: 2bcf f63b 8ee6 3a3c 1cd0 183c bd28 8cbc
00000300: 5e26 70bc e537 523a 97b3 95bc 9012 ff3a
00000310: d8aa cdbc 00bc 9b3c 9a70 013b 2cc7 8c3c
00000320: 9bae b23c a24f 193b d8b3 23bd ed7b 3e3a
00000330: 3183 bb3c 1cbf 383c 424a 4d3b 5681 54bc
00000340: a888 4fbc 9817 2abd 45ca 673b c3f6 ed3c
00000350: 1c93 bc3c 90a6 edbb ccde eb39 3eee 063c
00000360: 886f 6ebc 286e 5e3b b81b 9a3c 90e9 ffb9
00000370: 66b0 bfba 4341 c8b9 5a5c 683b 2820 903c
00000380: cde7 933c 1c85 e6bb 11b5 bebc 9027 c7bc
00000390: 1d56 70ba e026 093c 8aab e63b afec a9ba
000003a0: 1eab 343d c033 013b 1e75 32bc 5fbf 89bd
000003b0: 6376 58bc 6573 963b 461b 86bc e126 633a
000003c0: dea9 0dbc 5071 4b3c 5ad2 043c d42c 50bc
000003d0: a02c cebb 75c6 1f3b 6945 0dbc 3274 b3bb
000003e0: 63fb b1bb ccdd 8abb 0727 5ebb bd4b 143d
000003f0: 54de 60bc 6912 823b 762d 0e3d b7b9 213c
0.009224564 0.03150025 0.014733282 0.01749349 -0.014169108 0.008617412 -0.00787283 -0.001175133
-0.0047638523 -0.0057612616 -0.0042164815 0.01732511 -0.017211026 -0.014581527 0.0131100705 -0.02382261
0.031332567 0.007195612 0.01981069 0.04387007 -0.022964045 0.0022235455 -0.0025148846 0.0020643147
-0.011278092 -0.016356846 0.025491007 -0.006244994 0.018728038 -0.03176692 0.02461479 0.0013649333
0.006988205 -0.0047316654 -0.074656546 -0.009060032 0.003549337 0.027274359 0.004876703 0.025715942
-0.014225384 0.044023246 -0.009160035 -0.040963378 -0.0020130174 0.0018967314 0.012580256 0.028625628
0.017079256 -0.008671935 0.011594396 -0.007794164 0.0009025958 -0.0067698155 -0.03995573 -0.0068443306
-0.0051675164 0.009460467 -0.0126407305 0.019677212 -0.0035334243 -0.00057511067 -0.005432355 -0.0138700465
-0.0051232274 -0.0038596226 -0.0199742 -0.0053370832 0.021111785 -0.010226686 0.005968798 0.016650504
0.0064804843 -0.025532428 -0.012968303 0.027207535 0.013110269 -0.00733216 0.0021111395 -0.02947437
0.023054553 -0.01642984 -0.0055822423 0.019909937 -0.045155346 -0.004519315 0.0009250421 -0.0025698014
-0.0022973875 0.005038371 -0.0033098112 0.016614288 -0.006531206 0.019364797 0.0025148187 0.008675189
-0.013413744 -0.028320538 -0.0073589333 -0.006780681 -0.019263104 -0.015282459 -0.00031589775 -0.015904276
-0.007109716 0.0154957585 0.022971276 0.0033242754 -0.020377172 -0.018007841 -0.0016790924 -0.032408502
-0.0022696757 -0.009740972 0.0019268634 -0.02060953 0.023276336 -0.0096399225 0.00059056975 -1.2927689e-05
0.011897427 -0.011356184 0.014694359 -0.0001387613 0.027427888 0.030382222 -0.057278592 -0.014308634
-0.0018591806 0.0028375657 0.009365125 0.013963809 0.005364964 0.00020978379 0.0061282148 0.015811395
-0.012314754 -0.0061189365 0.035685804 0.00027643508 -0.021896461 -0.0032803502 -0.004569531 0.015979998
-0.00035639916 0.04017531 -0.0058236183 0.00852432 -0.0142220035 -0.009767323 0.022004563 -0.006536176
-0.005727636 0.0026563688 0.01979882 -0.013732685 0.00037276192 -0.0043504303 -0.017597012 0.012630456
-0.013299892 0.008805769 0.00163189 -0.004726943 0.0042846925 -0.01779075 -0.034301594 -0.030536233
-0.0007535694 -0.013868122 -0.010989308 -0.017191663 -0.02450794 0.010300997 0.0021617275 -0.007823004
-0.012548594 -0.0026098818 0.0076553323 0.002747179 -0.00046571967 -0.013845624 0.028589299 0.00096006977
0.01886653 -0.011217283 -0.00050830416 -0.009925745 0.0075320206 0.011407508 0.009326961 -0.01710927
-0.014657585 0.0008019193 -0.018274112 0.0019460488 -0.025105879 0.019010544 0.0019750954 0.017184816
0.021811774 0.0023393412 -0.039966434 0.0007266391 0.022889705 0.011276033 0.0031324779 -0.012970289
-0.012666859 -0.041526407 0.0035368365 0.02904833 0.023019366 -0.007252522 0.0004498869 0.008235512
-0.014552958 0.003394017 0.018812045 -0.00048811408 -0.0014624714 -0.00038195596 0.0035455436 0.017593458
0.018054867 -0.007034911 -0.023279699 -0.024310857 -0.00091681053 0.008371085 0.007039492 -0.0012964214
0.044108503 0.0019714683 -0.010892181 -0.06725954 -0.013211819 0.004591393 -0.016370427 0.0008665156
-0.0086464565 0.0124171525 0.008106792 -0.012706 -0.006291941 0.0024379764 -0.008622506 -0.005476498
-0.005431579 -0.004237866 -0.0033897774 0.036205042 -0.013724882 0.00396948 0.034711324 0.009870938

gan_net.main.2.bias_step_0 f4 [258]
00000000: 6915 b5bf c09b b7bf ac27 38c0 cd8c 41c0
00000010: 98d0 b4bf efd1 74bf 5236 81bf b661 72bf
00000020: 09fb 8fbf ffe7 df3e 6b0c 083e 5917 c1bd
00000030: a8cf eabf a36e ffbe 2754 93c0 e763 b3bf
00000040: 02e1 b7bb 4821 aabf 0534 b8bd 7f5f 8ebf
00000050: 7252 a7bf 8287 b23e c19d 92bf 2247 84bf
00000060: c2a7 e8bf fc3b 80bf c39f ebbf 5b89 95bf
00000070: 7a97 97bf 669f 9bbf c098 623f e876 d7bf
00000080: ced5 b2bf 4e39 9abe aafb 3cbf 711b 38bf
00000090: 49cf 9cbd 47f9 8fbf adc7 633e cbfa a5bf
000000a0: f0f4 56be 48b9 8dbf 5e39 adbf b3db abc0
000000b0: b311 c5be c3dc ed3d c749 8dbf a89f acbf
000000c0: c21f 97bf 1952 a0bc 93b1 9fbf 1b87 ccbe
000000d0: ee75 85c0 8390 583e b5c1 ba3c 66ea 5bbf
000000e0: cd19 adbf 6ead 8dbf 6e0b ea3e ff7e be3d
000000f0: 5c0e 18c0 f51b 22bf 4b78 61bf 75c2 47be
00000100: 4e10 e9bf 4fd1 7bbf fe3e a7bf 5974 aebf
00000110: ca68 85be 17ff 97be 2711 bf3e 563c abbf
00000120: 5126 f83e 7306 10c0 feab b5bf 6d74 d53d
00000130: 7e34 80bf 6f85 553e cc82 86bf 0728 11bf
00000140: 0648 95bf 927b 99bf 204e edbd aa61 3abf
00000150: 5f56 b1bf a7b2 95bf f95c 873e d1bb bebf
00000160: b92c 9cbf 7d9a b2bf cae2 c9bf fd53 aabf
00000170: e6a4 47c0 d741 c43e 4d66 93bf 25ff 9fbf
00000180: ae49 bebf 7f75 68c0 62c6 b9bf d36b 61bf
00000190: 6977 23c0 9702 79be 1df9 9bbf 91e8 94bf
000001a0: 68af 94bf 3fd2 c2c0 0141 3ebf 8f9a 96bf
000001b0: 647e aec0 4053 a5bf 1422 79c0 26a2 8b3e
000001c0: 1580 9fbf 2c73 8bbf 09a5 b3bf 7c88 81bf
000001d0: 489a 803f a224 edbe 8472 50c0 8c6b 55bd
000001e0: c78f 5cbd 685d 5abf 0ef4 72bf 85a2 acbf
000001f0: a96d a2be 9c94 c8be 6758 e2bd 355e ffbe
00000200: bd06 fd3c d254 c3bf 0000 03bf 4d81 94bf
00000210: 1319 90c0 6c5d 90bf 13b1 8ebf 7c38 a0bf
00000220: 0fa8 ddbf 4553 f13d bfef 1a3e c9fd ec3e
00000230: 7eaf 9bbf 67f1 95bf 78b4 3cbe 4a10 31be
00000240: e13e afbf afba 65bf 85e6 c6bf 939b f93d
00000250: 6744 eb3e 8246 87bd 55ef 223e dd77 06bf
00000260: f982 66bf 88c6 93bf c4af 383f ae01 31be
00000270: 0c42 c3bf 41c0 ccbe f84e 13be 3f19 79bf
00000280: 6a6b fb3e b03a ac3d 323e b3bf 83fe 93c0
00000290: b95a bd3d b828 19bf c2cf aabe 248f 14bf
000002a0: 4c30 d23e 0ded b7bf 1f08 c8bf c707 3b3f
000002b0: a387 d63e 2ef2 b1bf 79c8 8cc0 e73d 6fc0
000002c0: 0f9b 96bf 659b 9dbf c476 97bf 220d 8fbe
000002d0: d4b8 9abf c36b 8bbf ab88 02bf 0f45 a1bf
000002e0: bd57 89bf eb9f 8fbf d0f7 abbf 6bd8 8ebe
000002f0: 0ac5 8ebf 40b4 a7bf f2dc b1bf 8e10 9cbf
00000300: cef2 a9be ca18 9ebf 0929 6cbe e844 573e
00000310: 4824 f03e 1517 87be b458 1cbe 7017 30bf
00000320: cf32 5abf 61e2 21bf f246 a9bf 3b6b a5bf
00000330: 8b8e 60bf 8157 293e 0661 9a3e d72c 71bf
00000340: 1f53 8cbf a36f 76be b29e 94bf b4c5 e0bd
00000350: bd3f a23e f600 b8be 0736 50be 41db aa3c
00000360: 490d d1bf c680 7cbf f8ed 3d3f 9a37 e6be
00000370: 0eee c8c0 4b01 903e 8684 273e 7167 05bf
00000380: 16f2 87bf 061f 7dba b9e6 3dbf 6348 3dc0
00000390: d8fe 1bc0 4095 dfbd d239 b1bf 923e 7abf
000003a0: 8f1d adbf 683b 86bd 039a 1a3f 9fa1 9cbf
000003b0: 5f8e a8c0 249c 81bf 7d45 8fbf 4ac2 b0bf
000003c0: e2bd aabf e84e cb3d 1183 6ebf 11b7 98bf
000003d0: e776 acbf c054 c9bf 6b92 87bf 52ac 0fbf
000003e0: 1355 9c3e 244c c4be f77c d63d 97e2 d6be
000003f0: 3225 85bf 7cff afbf 3a31 71bf a90c 88bf
-1.4147159 -1.4344406 -2.8774214 -3.0242188 -1.4126158 -0.95632833 -1.0094702 -0.94680345
-1.1248485 0.43731686 0.13285987 -0.09428281 -1.8344622 -0.49889097 -4.6040225 -1.4014863
-0.00561154 -1.3291407 -0.08994297 -1.1122893 -1.3072035 0.3486901 -1.1454393 -1.0334208
-1.8176196 -1.0018306 -1.840813 -1.1682543 -1.1843102 -1.215802 0.8851433 -1.6833162
-1.3971498 -0.30121845 -0.7382151 -0.7191687 -0.07656724 -1.1247948 0.22244139 -1.2967161
-0.20991874 -1.1072168 -1.3533132 -5.3705688 -0.38490066 0.116143726 -1.103814 -1.3486223
-1.1806567 -0.019570397 -1.2476066 -0.39946827 -4.1706457 0.21148877 0.022797445 -0.8590454
-1.3523499 -1.1068552 0.45711845 0.09301566 -2.3758764 -0.6332391 -0.8807418 -0.19507773
-1.8208101 -0.98366255 -1.3066099 -1.3629256 -0.2605651 -0.29686806 0.37317774 -1.3377788
0.48466733 -2.2503936 -1.4193113 0.10422597 -1.0016019 0.20851682 -1.0508666 -0.567017
-1.1662605 -1.1990836 -0.11587167 -0.72805274 -1.3854483 -1.1695145 0.2643812 -1.4901067
-1.2201148 -1.3953396 -1.5772336 -1.3306881 -3.1194396 0.38331482 -1.1515595 -1.2499739
-1.4866235 -3.6321714 -1.4513667 -0.8805515 -2.5541632 -0.24317394 -1.2185398 -1.1633474
-1.161603 -6.088165 -0.7431794 -1.1765918 -5.4529285 -1.2916031 -3.892705 0.27272147
-1.2460963 -1.0894523 -1.403474 -1.0119777 1.0047083 -0.4631701 -3.2569895 -0.052104518
-0.053848054 -0.85298777 -0.9490365 -1.3487097 -0.3172429 -0.3917588 -0.11052018 -0.49876562
0.030887002 -1.526026 -0.51171875 -1.160196 -4.503061 -1.127851 -1.1147789 -1.2517238
-1.7316912 0.117834605 0.15130518 0.46287373 -1.2162931 -1.1714295 -0.18428218 -0.1729137
-1.3691064 -0.8973798 -1.5539099 0.121878766 0.45950624 -0.06605245 0.1591161 -0.52526647
-0.900436 -1.1544962 0.721432 -0.17285797 -1.5254531 -0.39990428 -0.14385593 -0.9730415
0.49105388 0.08409631 -1.4003356 -4.6248183 0.092458196 -0.59827757 -0.33361632 -0.58030915
0.41052473 -1.4369217 -1.5627478 0.7305874 0.41900358 -1.3902032 -4.3994718 -3.7381532
-1.176607 -1.2313048 -1.1833119 -0.27939707 -1.2087655 -1.0892261 -0.5098979 -1.25992
-1.0729901 -1.1220678 -1.3435001 -0.2789949 -1.1153882 -1.3101883 -1.3895552 -1.2192552
-0.33193058 -1.2351315 -0.23062529 0.2102238 0.4690268 -0.26384798 -0.15268213 -0.6878576
-0.8523378 -0.6323605 -1.3224776 -1.2923349 -0.87717503 0.16537286 0.30152148 -0.94209045
-1.0962867 -0.24066024 -1.161093 -0.10975209 0.31689253 -0.35938233 -0.2033311 0.020856502
-1.6332179 -0.9863399 0.74191236 -0.44964296 -6.2790594 0.28125986 0.16359147 -0.52110964
-1.0620754 -0.0009655807 -0.7418018 -2.9575431 -2.4374294 -0.10917139 -1.384577 -0.97751725
-1.3524646 -0.065542996 0.60391253 -1.2236823 -5.2673793 -1.0125775 -1.1193081 -1.3809292
-1.3339198 0.099271595 -0.9316874 -1.1930867 -1.3473786 -1.5728989 -1.0591558 -0.56122315
0.30533656 -0.3833934 0.10473054 -0.4196975 -1.0401976 -1.3749843 -0.9421574 -1.0628864

gan_net.main.4.weight_step_0 f4 [258, 258]
00000000: 29a5 b93d 739f c4bc c51c 013d eebd 923c
00000010: ca12 db3d ec47 703d 0a3e 7a3d b2c3 afbd
00000020: 9f3f 48bd ec2b 953e 84ad 9d3e f8ab e63d
00000030: ff89 adbd 4a6c 0d3e bcbf 5fbb d442 a83d
00000040: 34ca 6fbe a4f3 d2bd ecab 3e3e 3b6f 013e
00000050: 61bc c9bd 0c58 5ebe e4cc d43c 1128 e2bd
00000060: cd39 ec3d 63b2 dcbc ce7e f43d 4be8 0a3c
00000070: caf3 263d 63f5 573d 199f 9c3e 827c 09ba
00000080: 3be4 383d db1f 863e 23b4 333e 06f4 803b
00000090: d2a4 663e 1e82 b4bc 04fc 3a3e 7064 2c3e
000000a0: 2a99 123d 7cb7 1c3d b827 89be ffef b1bc
000000b0: 4c73 0bbe a13e 2bbe e361 d93c 70b6 51bd
000000c0: 765c d73c 27a4 4ebd 37ae 4f3e 0daf 1e3d
000000d0: 2342 eb3b bcd8 c4be a0c2 0d3e 94ae ffbc
000000e0: c329 bfbc e573 8cbc 29f3 a1be 0c32 5fbd
000000f0: 4057 123c b1e1 783d 517e af3c cbf1 0d3f
00000100: 6985 d4bd 263f 123e 1d7a 19be 2a93 93be
00000110: cf31 bebc 9089 0dbe e170 f4bc d3c6 163c
00000120: 8e87 4a3f 3020 dfbe 1acd d23c f916 d9be
00000130: 395f 273b 1a77 a03d ed7a c73d c6a5 053d
00000140: 2a19 8cbc 5e75 243e 8613 a3bd a7a1 1abe
00000150: f570 fbbd f0f9 41bc ed17 c3be 85d1 3fbd
00000160: 79ec de3c 9cc6 83bd d7db 42bc 1fec b13c
00000170: 288b cdbb e091 11be 78ba 4e3d 71e3 603d
00000180: 3578 25bd b003 c13c 8a38 b1bc f21a 2e3e
00000190: ab47 d639 87a4 01bc 4337 383c 6c88 623d
000001a0: 51aa 883d 6f62 17bd f370 103f 2eb9 21bb
000001b0: d38e 60bd f1cd efbc 928b bbbc 285b d53e
000001c0: d26b afbd 5e76 06be 7d3c a6bb c401 333e
000001d0: 4b08 8abe 2963 0bbf 3044 48bc 418c 413d
000001e0: 767c 27bd 16d6 1ebd 8f63 8b3c 626a f9bd
000001f0: cb9d 07be 8da4 783d 3561 d5bc dec0 133e
00000200: b1f9 9fbc 25dc 8d3e 184f 123c 4d44 8a3b
00000210: 98f1 303c a120 8a3c 71ac 413d b551 03bd
00000220: 7470 f7bc f750 1c3e 5bf2 c5bd ed87 30be
00000230: 0d4b a93c ba42 ba3c 7862 09bf 8f2d a93c
00000240: 5ca3 893b 2bf4 143d 056c 003d 5bf7 ab3d
00000250: f69a 3bbf 7e0b ba3e 095e 32be b4dd f93d
00000260: 4af8 06be fd51 b53d a910 073e 64e6 323a
00000270: dd39 233c d6d3 153e 2d12 debd 74de bbbd
00000280: f7c6 303e a440 04bf 522d 4a3b bf5b 5b3c
00000290: ed51 f1bd a698 b1bc a3f2 da3d a9c6 42be
000002a0: bdaf db3d fab2 38bd 9341 e03d 1b01 96be
000002b0: 40aa 003e d40a e0bc a601 7c3b c07c 843c
000002c0: 31b3 f23d 0f83 cfbd 7934 65bd 3f92 92bd
000002d0: 2c06 9abd 8983 37bc 0e97 4a3d ada0 b9bd
000002e0: e351 ffbc 0f60 d5bd 8fce 0a3d e1b5 e73d
000002f0: 5f1c 4c3d 0347 b6bd 7496 6c3c db7e 453c
00000300: 2469 913e fef8 2cbe cdd3 24be 0dc4 6a3e
00000310: 5059 0cbd a91c 2d3b 0fcb 993d e8af 18be
00000320: ec59 353e 6acd 19bd e327 95bc 3e9f 02bd
00000330: b323 0b3d 8e96 8ebe 9383 4b3d 1164 a33c
00000340: 9dda 233d 5c98 843d 8a5a 7fbd 45fb 1abd
00000350: 42ae 41bd 32ba ed3e 4f70 8c3d 1249 77bd
00000360: ab46 cc3a 8966 86bd 2a31 09bf ebc7 7ebd
00000370: 002c 313d ee7d 8e3e 70e3 c4be 083b 8e3e
00000380: 804d 05bc de1c ebbe 0f07 1e3c 049d 1fbd
00000390: 01ae a2bc ea7f eb3d c556 f2bd c81f 6f3d
000003a0: 6862 39bc b58c 2f3e acd0 103f d429 da3d
000003b0: 9cbd 2dbc 82ac ef3c cf53 28bd b052 fdbc
000003c0: b7e6 8d3d 427d b0be 9018 513d ca87 1d3e
000003d0: cfce 7ebc 04bb 16be f365 1b3c 4d78 303e
000003e0: 635e 7d3d dc6d 993d 08f2 c1be 3699 26be
000003f0: 4cd7 babd 41c6 f53d a1e1 2abe a474 a6bd
0.09064705 -0.024001813 0.031521577 0.017912831 0.10696943 0.05866234 0.06109432 -0.08582248
-0.0488888 0.29135072 0.30796444 0.11263269 -0.08473586 0.1381084 -0.0034141382 0.082158715
-0.23416978 -0.10300377 0.1862027 0.12640087 -0.098503835 -0.21713275 0.025976606 -0.11042798
0.11534462 -0.02694053 0.119382486 0.0084782345 0.04075984 0.052724253 0.30590132 -0.00052446884
0.045139533 0.2619618 0.17549185 0.00393534 0.22523811 -0.022034701 0.18260199 0.16835189
0.0357906 0.03826092 -0.26788116 -0.021720884 -0.13618201 -0.1672311 0.026535934 -0.051199377
0.026289206 -0.050449517 0.20281301 0.03874116 0.007179515 -0.38446605 0.13843775 -0.031211175
-0.023335343 -0.017145107 -0.3163083 -0.054491088 0.008931935 0.06076211 0.021422537 0.5544707
-0.103770085 0.14281902 -0.14987989 -0.28823215 -0.02321711 -0.13822007 -0.029838981 0.009202677
0.7911309 -0.43579245 0.025732566 -0.4240034 0.0025538935 0.07835217 0.09740243 0.032628797
-0.017101843 0.16060397 -0.07962708 -0.15100728 -0.12277404 -0.011839375 -0.3810419 -0.046830673
0.027212368 -0.06434366 -0.011893234 0.021719037 -0.0062726922 -0.14215803 0.0504708 0.054904405
-0.04039784 0.023561329 -0.021633405 0.17002466 0.00040870658 -0.0079127615 0.011243644 0.055305883
0.0667311 -0.036959108 0.56422347 -0.0024677026 -0.054823708 -0.029273005 -0.0228937 0.4167111
-0.08565487 -0.13131091 -0.0050731287 0.17481142 -0.26959452 -0.5444818 -0.012223288 0.047252897
-0.04089018 -0.038778387 0.017015247 -0.12178494 -0.13243787 0.060703803 -0.026047328 0.14429042
-0.019528242 0.2770702 0.00892999 0.004219568 0.010799788 0.016861262 0.047283594 -0.032060344
-0.030204989 0.1526526 -0.09665366 -0.17239352 0.02066567 0.022736896 -0.53665876 0.020651607
0.004200382 0.03636567 0.031353015 0.08396789 -0.73283327 0.36336893 -0.17418684 0.1220049
-0.13180652 0.08853529 0.13189949 0.0006824492 0.009962526 0.1463159 -0.108433105 -0.09173289
0.17263399 -0.51661134 0.0030849767 0.013388573 -0.11783204 -0.021679234 0.106908105 -0.19021095
0.10726879 -0.04509256 0.10950007 -0.29297718 0.12564945 -0.027348913 0.003845313 0.016172767
0.11850584 -0.10132419 -0.055958245 -0.071568005 -0.075207084 -0.011200794 0.049460463 -0.090638496
-0.031166976 -0.10418712 0.033888396 0.113139875 0.049831744 -0.08900263 0.014440168 0.0120541705
0.28400528 -0.16891858 -0.1609642 0.2292635 -0.034264863 0.0026414788 0.075094335 -0.14910853
0.17710084 -0.037549414 -0.018207496 -0.031890146 0.033969592 -0.2784924 0.049686026 0.019945176
0.040003408 0.06474373 -0.062342204 -0.037837286 -0.047285326 0.46431118 0.06857359 -0.06037242
0.0015585026 -0.06562526 -0.53590643 -0.062202375 0.043254852 0.27830452 -0.3845477 0.27779412
-0.008136153 -0.4592046 0.009645238 -0.0389681 -0.019858362 0.11499007 -0.11832956 0.05837992
-0.011314966 0.17143519 0.5656841 0.10652509 -0.010604288 0.029257063 -0.04109555 -0.030923218
0.06928771 -0.34470564 0.051048815 0.1538383 -0.015552237 -0.14719778 0.009484756 0.17233391
0.061857592 0.07491657 -0.37879968 -0.16269383 -0.09123096 0.120007046 -0.16687633 -0.08127716

gan_net.main.4.bias_step_0 f4 [258]
00000000: b488 a4be 43df 9cbf c3d5 cabe 140f 00bf
00000010: 9876 85be b0ec d2be 1571 00bf 6eae 01bf
00000020: 3e71 9fbe 32fe 81be 61b6 44be 8763 43be
00000030: 95ec a6be 32a3 6ebe 8ab4 0ebf 02ab 60be
00000040: 990f 99be dfa0 c8bf 4db3 74be 2572 b8be
00000050: 0b23 cbbe 5ccb 80be 41eb ecbe 6850 07bf
00000060: 26da b6bf 4539 7bc0 e5d3 b03d a28e fdbd
00000070: 2ff7 d5be 5291 6bbf ec74 30bf fb77 acbc
00000080: f70e f6be 1b5f 10bf e5f2 98bd fb01 7dbe
00000090: 8a4e 1d3e c525 f2bc 5639 0dbf 1e4f bfbf
000000a0: f61c 96bf af3a cebb bcc9 9dbf 37d6 553d
000000b0: 5c5b 583e ec19 20bf 1152 7cbf 3bbb 65bf
000000c0: e15e c3bb fbfd 8bbe 50e5 41bf 150c 9ebe
000000d0: 2436 87be 378c 54be 083e 30bf 5c6e 183e
000000e0: 6d20 36bf 10d1 a6bf 96cb 3bbf 81fd aebe
000000f0: 6c98 2ebf c903 f9bf 142c 3bbf 553f b6be
00000100: d3d3 38bf e775 bfbf e941 72bf 9c3e 16be
00000110: 5c5f 11c0 c502 bdbf 778c c03d 5496 11bf
00000120: 8d1f b9be d04f 30bf 3553 cdbe 6631 7ebe
00000130: 6432 f5be 0625 bfbe 6e0d 98bf 306b 48be
00000140: f7d2 7fbd afb8 3d3d 0126 49bd b009 dabe
00000150: 184e 06be aded 7bbf b34f c7bd 0bb2 22bf
00000160: 7b71 03bf 2e33 e0be dbf3 d2bd 2e1c 973d
00000170: 7019 02bf ee86 29bf 6554 f5be f216 303e
00000180: 6d80 69be ed9f be3d ad18 1e3c 27d6 82bc
00000190: ce49 83be 3bc9 59bf 8db1 bcbe 360b 03bf
000001a0: 57c7 87bd 4e5e 17bf b0f6 49bd 3635 41bf
000001b0: 04cd 6d3d d2e0 87bd 8203 003e d311 96bf
000001c0: 5da1 c4be c749 b7bd 7876 d7be ce23 c7be
000001d0: 313e 37bf 5701 3b3e fb0a 07bf 29f5 a1bd
000001e0: 3d63 84c0 25a6 c23d 3fc1 07bf 5f57 c73e
000001f0: b25d 36bf f168 f1bd e152 04bf 954b 74be
00000200: 969f 59bd 8bab 1cbf 045a bbbe 334e 6bbf
00000210: d445 29be 02ec 2ebe 14c9 6ebf a711 88bf
00000220: c908 efbe ebbf ca3e e337 ffbd ab8a c5bf
00000230: 32fa 87be 3829 01bd d7cb 05be afa5 45bf
00000240: 427f d1be a18c ccba 7992 f9bd dc10 35bf
00000250: e47a 33bf a89e 9d3d 0dba d8be 2838 8ebe
00000260: 292d 27be 56ed 0dbf 9be5 0a3d 83f0 c5be
00000270: fea8 9fbe 6e74 f03e 6c44 41bf c490 92bf
00000280: ebcd 6dbe 7294 6cbf fc66 32bf b5e9 09c0
00000290: db9a 8c3e 813a 9abe 318a 17bf f9b8 2dbf
000002a0: 455e 88bf 8a98 2dbf 55b3 63c0 8df5 40be
000002b0: 8746 bcbd 328f 09bf 7ea7 b53e 6b7f 57bf
000002c0: 5a4d 2abf c1d6 a5be 51fd 49bf 5a56 bd3e
000002d0: 91b1 bbbe 4f0e 41be 151f 63be d42a 07be
000002e0: acb5 d2be 48fe c8bf b3fc 9fbf b45b edbf
000002f0: 58ca eebe c737 59c0 c160 1ac0 5969 b0bd
00000300: 3ed5 35c0 c0cc c6be 2c24 54bf f8e6 92be
00000310: 5cca 553e 5cd9 aabe f25d 2bbd 6683 743e
00000320: 2044 a5bf 4838 10c0 c769 68be 44ac 23bf
00000330: 2e71 9cbd 0262 0cbf 682b ccbf de03 083f
00000340: 27a6 e4be 6543 cfbf 1d0f b5bf c872 cbbe
00000350: 9cd7 aabe d539 b43d 1490 153e d8f0 8abe
00000360: 7e2b edbe 8c58 10bf ff81 d7be 9a41 8e3e
00000370: 1b9f 4f3d 55c9 29bf 78cb e8bd 8164 89bf
00000380: b12c aebd 982f 3b3f f412 08bf cd12 4ebf
00000390: 54a3 a4bf f8e8 d9be a3b2 93be 5734 c7be
000003a0: 82db 71be ce9f 0abf 247b d8be b4bd eabe
000003b0: 1e25 e5be 5b6f f3bd b397 68be 2344 e3bd
000003c0: 307f 59be 9904 6ebf 3de5 c8be dcb0 9dbf
000003d0: 886e edbf 489a 11bf 6445 9cbf 90e1 21bf
000003e0: 7f90 5ebe dc9c 78bf 263b 98be 6900 6ebf
000003f0: 824e cebe a3ac 14be d097 a13e abd9 8ebd
-0.32135546 -1.2255634 -0.39616212 -0.5002301 -0.26067042 -0.41196203 -0.5017255 -0.50656784
-0.31141084 -0.25389248 -0.19210197 -0.19080935 -0.32602373 -0.23304442 -0.5574423 -0.21940234
-0.29894713 -1.5674094 -0.23896523 -0.36024585 -0.39675173 -0.2515515 -0.46273234 -0.52857065
-1.4285324 -3.9253705 0.08634166 -0.12380721 -0.4179015 -0.92018616 -0.6892841 -0.021053305
-0.48058292 -0.5639512 -0.074682035 -0.24707787 0.15361992 -0.029559026 -0.5516561 -1.494602
-1.1727588 -0.0062936167 -1.232719 0.052206244 0.21128601 -0.62539554 -0.98562723 -0.89738816
-0.005962238 -0.2734221 -0.7574053 -0.30868593 -0.26408494 -0.20756613 -0.6884465 0.14885849
-0.7114323 -1.3032551 -0.7335752 -0.34177783 -0.6820133 -1.945428 -0.7311413 -0.35595194
-0.7219822 -1.4957856 -0.9463182 -0.14672321 -2.2714453 -1.476647 0.094017915 -0.5687001
-0.36156884 -0.68871784 -0.40102544 -0.24823532 -0.47890007 -0.37332934 -1.1879098 -0.19572139
-0.06245705 0.046318706 -0.04910851 -0.42585516 -0.13115728 -0.9840954 -0.09731998 -0.6355292
-0.5134503 -0.43789047 -0.10300418 0.07378422 -0.50820065 -0.6622151 -0.4791595 0.17196253
-0.22802897 0.09307847 0.009649438 -0.015971256 -0.25642246 -0.8507268 -0.3685421 -0.5118898
-0.06629818 -0.5912827 -0.049307525 -0.7547182 0.058056846 -0.06634678 0.12501338 -1.172419
-0.3840436 -0.08949619 -0.42082572 -0.38894504 -0.7157927 0.1826223 -0.5275113 -0.07908089
-4.137114 0.09504346 -0.53029245 0.38933846 -0.7123672 -0.11787594 -0.51688963 -0.23856957
-0.05313071 -0.61199254 -0.36592114 -0.919162 -0.16530544 -0.17082217 -0.9327557 -1.0630387
-0.4668639 0.39599547 -0.124618314 -1.5432943 -0.2655807 -0.03153345 -0.1306604 -0.7720594
-0.40917403 -0.0015605876 -0.121861406 -0.7072885 -0.7010939 0.07696277 -0.42329445 -0.2777722
-0.16325821 -0.5544027 0.033910375 -0.38660058 -0.31183618 0.4696383 -0.7549503 -1.1450429
-0.23223083 -0.9241401 -0.6968839 -2.1548893 0.27461895 -0.3012276 -0.5919524 -0.6786037
-1.0653769 -0.6781088 -3.5578206 -0.1884367 -0.091931395 -0.53734124 0.3547935 -0.841788
-0.6652428 -0.32390407 -0.78902155 0.36979944 -0.3665891 -0.18853115 -0.22179826 -0.13199931
-0.4115423 -1.57026 -1.2498993 -1.854361 -0.4663875 -3.3940294 -2.4121554 -0.086138435
-2.8411403 -0.38828087 -0.82867694 -0.2869184 0.20877975 -0.33368957 -0.04183764 0.2387825
-1.2911415 -2.2534351 -0.22696601 -0.6393473 -0.07638775 -0.5483705 -1.5950747 0.531309
-0.44658014 -1.6192442 -1.4145237 -0.3973601 -0.33367622 0.08800093 0.14605743 -0.27136874
-0.46322244 -0.5638511 -0.42091367 0.27784425 0.050688844 -0.66322833 -0.113669336 -1.0733796
-0.08504618 0.731195 -0.5315392 -0.8049744 -1.2862344 -0.42560554 -0.28847227 -0.3890712
-0.23618892 -0.5415009 -0.4228145 -0.45847857 -0.4475488 -0.11886474 -0.22714119 -0.110969804
-0.21239924 -0.92975765 -0.39237395 -1.2319598 -1.8549356 -0.5687604 -1.2208676 -0.63234806
-0.21734808 -0.9711435 -0.29732627 -0.92969376 -0.40294272 -0.1451898 0.31561136 -0.069751106

gan_net.main.6.weight_step_0 f4 [258, 258]
00000000: f0ba 63bd c980 1e3c 949a 8e3d eeb2 9a3d
00000010: 39cf bebd 5451 853d 0405 633e afc5 eabd
00000020: 31c2 02bf e553 8d3c 85ee b03b 917c 063e
00000030: c7c5 3b3d 2854 f7bc a60a fdbc 82e5 00bf
00000040: 27e4 1bbd 2b3c 33be 3cc8 4c3d 7648 3b3e
00000050: ae22 ae3c 5ae2 eebd 1e54 cb3d 10ab 1cbe
00000060: a717 41bd 3e30 093c bbfe 38bd 339b b93d
00000070: 7586 973d dc32 a23c 8880 0cbc 9484 a4bd
00000080: 8819 49be fc04 9a3b 5bbd ae3d 8a20 47bd
00000090: 4806 2e3a 9b91 6d3d f66b a83c e119 38be
000000a0: aaf0 f4bd 3d56 383d 96a6 d03a ae77 1ebe
000000b0: 48f4 223f a028 8abc d7ae adbc 0600 2a3c
000000c0: 47c5 c73d 39fa 27be 82f2 74be 2041 84bd
000000d0: 85e6 9ebd c8c0 623d 4f43 743d dfa4 bf3d
000000e0: 3c56 dcbd d965 34be b700 42bd ebe7 15bd
000000f0: 69ec b0bc 6f2b 183d 1f03 893d f297 1e3d
00000100: fa29 7bbd 102e bdbe 6198 753e c5a2 5abe
00000110: c82d 12bd 19f4 213e 5a78 cd3d 8871 07bd
00000120: 097e 873d 87f7 97bd c15f 343e 9920 abbe
00000130: aafc 663d 7cb5 ef3d 7d67 30be 96a8 ed3d
00000140: 25f6 fe3d 86ac fdbe 8b18 3d3d f8a9 28be
00000150: 25e0 ff3c 636f 8abb c124 b03b 7a2e 02bd
00000160: ba56 debd bfdc 1ebe 9063 153c 4350 3c3d
00000170: 984c 21bc 914d 57be bf66 dabd 804b 44be
00000180: 1345 4dbc d0ab 893e 39d2 793d a670 a13c
00000190: d650 8e3b 1287 adbd b3a0 90bd c14c 363c
000001a0: f237 723e d205 893e 6d1b 863e 5340 08bf
000001b0: 0990 89bb eae6 5cbe d3c4 e3bd 23d1 633d
000001c0: 7485 eb3d 82d0 e23d 5644 93be 9b0d 1c3d
000001d0: d58a 1dbe 1f61 b63c 096a 473d 6356 67bd
000001e0: 439f 2cbd 0543 67be e727 10bd 6537 45be
000001f0: 152f 313c 6bd1 7abd b935 503d d110 e13d
00000200: 8f78 763d 9568 1cbe f497 30be b6bc 063d
00000210: 257d 1e3b eb0a 01be 38d6 10bd ceae 0a3e
00000220: 4cae 40bd 2fbc 2dbe 451a e53c 0085 003d
00000230: be9d 3dbc 9446 bd39 18d0 c33c 3db7 5d3d
00000240: ef31 493d 33b5 cfbd 0f8b df3e ca8e c2bb
00000250: 9ec8 983d 319e f83d 751c 23be 16f2 0f3d
00000260: 6fae a4bd 1ec3 6b3d 66ec 9fbe e300 f0bd
00000270: 4848 1e3e 17af 5e3d 3306 b0bb acd6 1c3a
00000280: a60d 9abe ac4e d43b 3827 563d f09e f93c
00000290: cda2 b9bd cbeb 8abc 762c 4cbe 68c3 5a3c
000002a0: 097f ecbd ceab 5a3e 6d26 873d dab4 093c
000002b0: 67de 8e3d 5d34 af3d e390 383e ac7e 203e
000002c0: af96 5cbd deae 8bbe 39ea 6abe 712d c2bd
000002d0: a386 aa3d 9e50 e63e f102 513e 1753 063e
000002e0: 7e5a ac3d a2ae 7fbe 0261 4ebe 82f4 91bb
000002f0: e161 0c3d a921 4cbb 9c02 b8bb 0aa3 98bd
00000300: d070 9dbd 8b9a 18be 7a53 8ebe 3fcf 3d3c
00000310: 250d 86be b55c 1dbd dddd 02bd 3c22 70be
00000320: b5ea e0bd 22b6 82bd 97c5 2d3e 3343 dbbc
00000330: b649 17be a271 313e e4fd 233e e81f 883e
00000340: d880 b43d f9df 99bd 409a 41be f8f3 20bd
00000350: eae0 65be d304 413d 2f70 12be 82a6 4c3d
00000360: a097 243c b1b0 553e 2a73 263c 07da 84be
00000370: 7dff 6b3d d3f9 53be 89bb e83c 4466 963d
00000380: 0c20 cc3c a17f 2e3e 7c45 25bc 5ba8 1a3d
00000390: ff7f 34be 512f 233e 37e7 873e 5dee e9bd
000003a0: 071e 963d 70d6 2b3e baf8 2dbc 595e 84bd
000003b0: e125 ab3d 0508 6abc 5a28 83bd 2492 633d
000003c0: 4dba d63d 1a28 30be e2de 06be edfd 9e3d
000003d0: 404c 963c ab1c 8abe 15ab e5bd b62d 2fbd
000003e0: ade2 dc3d bbfb 33bd 6fc6 36be a23b b33c
000003f0: c71d 17bd e42d b2bd 04f3 07be 34a8 aebe
-0.0555982 0.009674259 0.06963077 0.075536594 -0.09316868 0.06509653 0.22169882 -0.114634864
-0.5107756 0.017251918 0.0053995275 0.13133456 0.045842912 -0.030191496 -0.030888867 -0.503502
-0.03805938 -0.17503421 0.049995646 0.1828936 0.021256771 -0.11664267 0.099281535 -0.1529963
-0.047141697 0.008373318 -0.045164805 0.09062805 0.073986925 0.019799642 -0.008575566 -0.080331
-0.19638646 0.004700301 0.085322104 -0.048615016 0.0006638509 0.05800019 0.020559292 -0.17978622
-0.119599655 0.04500412 0.0015918787 -0.15475342 0.63653994 -0.016865075 -0.021201534 0.010375982
0.097544245 -0.16404046 -0.23920634 -0.06457734 -0.07758812 0.05535963 0.059634503 0.093576185
-0.107586354 -0.17616977 -0.047363963 -0.036598127 -0.021597104 0.037150797 0.066900484 0.038719125
-0.06131933 -0.36949205 0.23983909 -0.21351154 -0.03568819 0.15815772 0.10032721 -0.033067256
0.06615836 -0.07420259 0.17614652 -0.33423308 0.056393303 0.11704537 -0.17226978 0.11604421
0.12449292 -0.49545687 0.046165984 -0.16471088 0.03123481 -0.004224704 0.005375475 -0.031782605
-0.108563855 -0.15513895 0.009117976 0.04597498 -0.0098449215 -0.21025683 -0.106641285 -0.19169426
-0.012528676 0.26888895 0.0609915 0.019707035 0.0043431325 -0.08473028 -0.07061901 0.011126698
0.23654154 0.26762253 0.261928 -0.5322315 -0.0041980785 -0.21572462 -0.111215256 0.05561937
0.115000635 0.11074926 -0.28763074 0.038098913 -0.15384991 0.022263108 0.048685107 -0.05647887
-0.04214407 -0.2258416 -0.035194304 -0.19259413 0.010814448 -0.061234873 0.050832484 0.109895356
0.060173567 -0.1527427 -0.17245466 0.032894813 0.0024183479 -0.12601821 -0.035360545 0.13543245
-0.047041222 -0.16966318 0.027966628 0.03137684 -0.011573253 0.00036101474 0.023902938 0.054129828
0.049119886 -0.10141983 0.4366078 -0.005937432 0.0746014 0.121395476 -0.15928824 0.03514298
-0.08041083 0.057559125 -0.31235045 -0.11718919 0.1545726 0.054366197 -0.0053718328 0.00059829163
-0.30088538 0.006479105 0.052283496 0.030471295 -0.09064255 -0.016958138 -0.19938836 0.013352253
-0.115476675 0.21354601 0.06599126 0.008404935 0.06976014 0.085549094 0.1802402 0.15673321
-0.05385464 -0.2728185 -0.22940911 -0.094813235 0.08326461 0.4498338 0.20411278 0.13117634
0.084156975 -0.24968961 -0.20154193 -0.0044541964 0.034273032 -0.0031147993 -0.0056155454 -0.07452972
-0.07687533 -0.14902703 -0.27798063 0.011585056 -0.26181903 -0.03841849 -0.031949867 -0.2345056
-0.10982267 -0.06382395 0.16969906 -0.026765442 -0.14774212 0.17328504 0.1601482 0.26586843
0.088136375 -0.075134225 -0.18906498 -0.039295167 -0.22449079 0.04712374 -0.14300607 0.04996348
0.010045916 0.20868184 0.010159293 -0.25947592 0.0576167 -0.20700769 0.028409736 0.07343724
0.024917625 0.17040874 -0.010087367 0.037758213 -0.17626952 0.15936019 0.2654359 -0.11422417
0.07329946 0.1678102 -0.010618383 -0.06463308 0.08356834 -0.014284139 -0.06404181 0.055559292
0.10484753 -0.17202798 -0.1317096 0.07763276 0.018346906 -0.26974997 -0.11214272 -0.042768203
0.107854225 -0.04394124 -0.17849134 0.021879021 -0.036893632 -0.08700159 -0.13276297 -0.34112704

gan_net.main.6.bias_step_0 f4 [258]
00000000: 14b2 b8bc 647d 1ac0 5699 8bbd 7646 24c0
00000010: 530e 42be d165 cdbe a4ed b7be 2cce 69be
00000020: 2cf7 81be 876d 1bbf cb00 8bbe 02c5 2fbe
00000030: 1a34 22bc 1684 1dbf fd13 85bf 959a 93bd
00000040: ebaf 41c0 c0d0 fcbf 5546 cebd 28f7 aabf
00000050: 5dce 9ebe e4ec 20c0 434d eabf 282f a8be
00000060: 7770 a53a a140 20c0 0c0a ccbe f8e5 e7be
00000070: 2a7b 17bf 6582 20c0 52fb cc3d fc3e 11be
00000080: ba92 b4be 149d 3abf 403e 2bbd a907 07c0
00000090: 98ec d93e 5627 88be 0f89 28be aca2 b1be
000000a0: 473e d53d b8ba 18c0 a2ab 31c0 61af ffbe
000000b0: 6234 96be 7388 acbe 379b 45bf 2814 babc
000000c0: 3e4c 11be c68f 8bba cd2e 4ec0 f5a6 43bf
000000d0: ad3d 75bf 32b0 7d3c 0744 32c0 b23c 663e
000000e0: 0960 5cbf 2b86 d9be 2141 6ebd 00d0 86be
000000f0: e19f e5bf c94b 7abe 61c3 78be 576e ddbf
00000100: f16c 0cbe 305e 493d e6e8 a0bf 997b f4bd
00000110: 4b01 40bf b3f7 07bf cbcd 6ebe 3ac1 b2bf
00000120: 3823 b2bf f03d d83e 7a5f a3be 9583 72be
00000130: e61c 98be dcfc 5ebd aabc dcbf a92f 9ebe
00000140: dcf6 33c0 7b5e 31bf b813 e7be a088 32bf
00000150: daa9 b8bf 068c 13be af4b bf3e 9ccf 2ebf
00000160: 2064 79bd c6e9 41be 92bc c9bd 05ed a5be
00000170: 4541 35c0 30bd 91bc 0087 40bd 7b04 e4bc
00000180: 9f84 00c0 ccd0 b4bd 3590 f7be f684 363e
00000190: 1d6b efbe bbfc 29c0 9cd6 81bf 7d4a 0cbe
000001a0: 106e fcbf 997c 28be 14c6 1fbd 38aa d83c
000001b0: 79cb 2ebe e4bc b6bd 645f 1abf 3dcb 3fbf
000001c0: 0855 9dbe 480f 27be eaaa b6bf d291 38bf
000001d0: d3ec abbd 1a42 1dc0 94ee 11c0 0c55 3cbe
000001e0: 068f 88be 21f4 cfbe 5c6c 1fc0 d03b 0fbf
000001f0: 0701 37bf ce4b 013d d8b8 08bf b40c 3dbf
00000200: e505 dcbe 41d2 40bd 0416 99be 56cb 66bb
00000210: 02be 06c0 da39 c5be e68f 973f a2e2 4fc0
00000220: 1809 553c c138 4dbe b3cd 3abf 9555 b3bf
00000230: c319 6bbe 2beb f6bd 5fad 76bf 6b9c afbd
00000240: b09d 4fc0 c602 23be 18e5 9f3e 0dbf d0bf
00000250: 4c0e 41be 588a 213c 0ed9 e2bf a041 463e
00000260: 19c2 dc3b 3f93 04c0 04a3 45bf d6af c7bd
00000270: 97a9 b3bf f9bd 83be b877 2a3e ddc8 88bf
00000280: 710c 55be 8cb3 153c e32d d6bd 1757 64be
00000290: c7d8 6fbe 6a0d aebd 8b8b 92bf 5833 113e
000002a0: 094a 03bf 004a babf c615 9ebc 2e17 0bbf
000002b0: e841 d2be 0cba 95be a058 2fbc af11 10bf
000002c0: 1ac4 05bf ce5a bebe f521 58be 47e5 6dbf
000002d0: 4536 a9bf 645f 0d3e d6f4 bfbd ca5b b6be
000002e0: 33e7 1c3c bfb1 ab3d 4a7b b7be 7d32 06be
000002f0: 1bdc 2abf e1d8 37bd d095 41be 1911 63bf
00000300: b729 83be e5ae b4be 0ea0 03bf 984f 4fc0
00000310: 1e1f eebe bb7b 99bd efe3 35bf 63d0 acbe
00000320: 656c 583d 97f8 41be 16c2 ae3e c912 613f
00000330: a78b 89bf 1eed 59be 9fa7 8fbe be10 01c0
00000340: fe5f d1be 0fb5 cdbe 8a27 03bf 2aef b03d
00000350: 356b 71be 9258 a8bd 9b8d 99bf afb6 f9bc
00000360: 1bf8 da3d fa06 053e d00b 26c0 87d4 32bf
00000370: d6bb 85be 4a91 95bf 2550 33c0 446c a3be
00000380: 510d cdbf c987 3a3d 59cf 2ebe 1bd3 eabf
00000390: ee1f 01bf 21c5 f4bf f72a d3bf a3b2 803e
000003a0: 00cd 223d f98d 8dbe 0daf 88bd c527 40bf
000003b0: 06af 68bf 2654 c53d ab57 3dbe f78b 003e
000003c0: 9ea3 58bf c781 b3be 39f0 1fc0 8a75 0ec0
000003d0: f831 edbf ea83 a2be 7814 42be 2abe 60be
000003e0: 2cca 70be 7fae 5cbd c469 febd 514c ae3c
000003f0: c51c 09be c00d 13c0 5d92 99be 95de f3bd
-0.022545852 -2.4139032 -0.06816356 -2.5668006 -0.18950777 -0.40116742 -0.35923493 -0.22832555
-0.2538389 -0.60714 -0.27149042 -0.17164996 -0.009900117 -0.6152967 -1.0396725 -0.072072186
-3.0263622 -1.9751205 -0.100720085 -1.3356676 -0.31016818 -2.5144587 -1.8304828 -0.32848477
0.0012622018 -2.5039446 -0.39851415 -0.4529264 -0.5917231 -2.5079587 0.10008873 -0.14184183
-0.35268193 -0.7289593 -0.041807413 -2.1098425 0.4256332 -0.2659251 -0.16458534 -0.3469442
0.10412269 -2.3863964 -2.7761006 -0.4993849 -0.2933684 -0.33697852 -0.77189964 -0.02271469
-0.1418924 -0.0010647706 -3.2216065 -0.7642663 -0.95797235 0.015483903 -2.785402 0.22484091
-0.8608404 -0.42485175 -0.05816758 -0.26330566 -1.7939416 -0.24442972 -0.24293281 -1.7299298
-0.13713433 0.04916209 -1.2571075 -0.11937637 -0.7500197 -0.53112334 -0.23320691 -1.3965218
-1.3916998 0.42234755 -0.3190878 -0.23683007 -0.29709548 -0.054440364 -1.7245076 -0.30895737
-2.811942 -0.6928479 -0.45132232 -0.69739723 -1.4426835 -0.14408883 0.3736243 -0.68285537
-0.060886502 -0.18936834 -0.0985042 -0.32407394 -2.8321087 -0.017790407 -0.047003746 -0.027834168
-2.0080945 -0.08828887 -0.4835221 0.17824158 -0.46761408 -2.6560504 -1.0143619 -0.1370029
-1.9721088 -0.1645378 -0.03900726 0.026448354 -0.17069806 -0.08922747 -0.60301805 -0.7491949
-0.30728936 -0.16314423 -1.4270909 -0.72097504 -0.0839478 -2.4571595 -2.2801867 -0.18391818
-0.26671618 -0.40615943 -2.4909887 -0.5595064 -0.7148594 0.031566434 -0.5340705 -0.7384751
-0.42973247 -0.047075514 -0.2989961 -0.0035216413 -2.1053472 -0.385207 1.1840789 -3.2482076
0.013002656 -0.20041181 -0.7297012 -1.4010493 -0.22959046 -0.120565735 -0.96358293 -0.08574756
-3.2439995 -0.15919027 0.31229472 -1.6308304 -0.1885311 0.009859644 -1.772249 0.19360971
0.0067370054 -2.0714872 -0.7720187 -0.09750335 -1.403613 -0.25730875 0.16647232 -1.0686299
-0.20805527 0.009137046 -0.10457971 -0.22298847 -0.23422538 -0.08498652 -1.1448835 0.14179742
-0.51284844 -1.4553833 -0.019297492 -0.54332244 -0.41065907 -0.29243505 -0.010702282 -0.56276983
-0.5225235 -0.37178653 -0.21106704 -0.92927974 -1.3219687 0.1380592 -0.093728706 -0.35616904
0.009576607 0.08383512 -0.3583625 -0.13105197 -0.66742104 -0.044884566 -0.18904805 -0.88697964
-0.25617763 -0.35289684 -0.514161 -3.239233 -0.46508116 -0.07494303 -0.71050924 -0.33752736
0.052837748 -0.18942486 0.3413245 0.8791929 -1.0745744 -0.2128186 -0.28057572 -2.0166469
-0.4089355 -0.401772 -0.51232207 0.08639367 -0.23576052 -0.082200184 -1.199634 -0.030482618
0.106918536 0.12990943 -2.594471 -0.6985554 -0.2611987 -1.1684964 -2.8017666 -0.31918538
-1.6019689 0.04553965 -0.17071284 -1.8345674 -0.50439346 -1.9122659 -1.6497487 0.2513629
0.039746284 -0.2764738 -0.06674013 -0.75060683 -0.90892065 0.09635191 -0.18490474 0.12553392
-0.8462466 -0.3505995 -2.499037 -2.225924 -1.8530874 -0.31741267 -0.1895312 -0.21947542
-0.23514622 -0.05387735 -0.12422517 0.021276625 -0.13389881 -2.2977142 -0.2999448 -0.119076885
